…
local_test:  (183,) (183, 527)
Smoke_detectorAND_smoke_alarm
local_test:  (59,) (59, 527)
Machine_gun
local_test:  (53,) (53, 527)
Breaking
local_test:  (54,) (54, 527)
x_mfcc (1456, 575, 64)
Loading data time: 19.678 s
n_time  575 n_freq  64
Tensor("in_layer:0", shape=(?, 575, 64), dtype=float32)
__________________________________________________________________________________________________
Layer (type)                    Output Shape         Param #     Connected to                     
==================================================================================================
in_layer (InputLayer)           (None, 575, 64)      0                                            
__________________________________________________________________________________________________
reshape_1 (Reshape)             (None, 575, 64, 1)   0           in_layer[0][0]                   
__________________________________________________________________________________________________
conv2d_1 (Conv2D)               (None, 575, 64, 128) 1152        reshape_1[0][0]                  
__________________________________________________________________________________________________
batch_normalization_1 (BatchNor (None, 575, 64, 128) 512         conv2d_1[0][0]                   
__________________________________________________________________________________________________
lambda_1 (Lambda)               (None, 575, 64, 64)  0           batch_normalization_1[0][0]      
__________________________________________________________________________________________________
lambda_2 (Lambda)               (None, 575, 64, 64)  0           batch_normalization_1[0][0]      
__________________________________________________________________________________________________
activation_1 (Activation)       (None, 575, 64, 64)  0           lambda_1[0][0]                   
__________________________________________________________________________________________________
activation_2 (Activation)       (None, 575, 64, 64)  0           lambda_2[0][0]                   
__________________________________________________________________________________________________
multiply_1 (Multiply)           (None, 575, 64, 64)  0           activation_1[0][0]               
                                                                 activation_2[0][0]               
__________________________________________________________________________________________________
conv2d_2 (Conv2D)               (None, 575, 64, 128) 73728       multiply_1[0][0]                 
__________________________________________________________________________________________________
batch_normalization_2 (BatchNor (None, 575, 64, 128) 512         conv2d_2[0][0]                   
__________________________________________________________________________________________________
lambda_3 (Lambda)               (None, 575, 64, 64)  0           batch_normalization_2[0][0]      
__________________________________________________________________________________________________
lambda_4 (Lambda)               (None, 575, 64, 64)  0           batch_normalization_2[0][0]      
__________________________________________________________________________________________________
activation_3 (Activation)       (None, 575, 64, 64)  0           lambda_3[0][0]                   
__________________________________________________________________________________________________
activation_4 (Activation)       (None, 575, 64, 64)  0           lambda_4[0][0]                   
__________________________________________________________________________________________________
multiply_2 (Multiply)           (None, 575, 64, 64)  0           activation_3[0][0]               
                                                                 activation_4[0][0]               
__________________________________________________________________________________________________
max_pooling2d_1 (MaxPooling2D)  (None, 575, 32, 64)  0           multiply_2[0][0]                 
__________________________________________________________________________________________________
conv2d_3 (Conv2D)               (None, 575, 32, 128) 73728       max_pooling2d_1[0][0]            
__________________________________________________________________________________________________
batch_normalization_3 (BatchNor (None, 575, 32, 128) 512         conv2d_3[0][0]                   
__________________________________________________________________________________________________
lambda_5 (Lambda)               (None, 575, 32, 64)  0           batch_normalization_3[0][0]      
__________________________________________________________________________________________________
lambda_6 (Lambda)               (None, 575, 32, 64)  0           batch_normalization_3[0][0]      
__________________________________________________________________________________________________
activation_5 (Activation)       (None, 575, 32, 64)  0           lambda_5[0][0]                   
__________________________________________________________________________________________________
activation_6 (Activation)       (None, 575, 32, 64)  0           lambda_6[0][0]                   
__________________________________________________________________________________________________
multiply_3 (Multiply)           (None, 575, 32, 64)  0           activation_5[0][0]               
                                                                 activation_6[0][0]               
__________________________________________________________________________________________________
conv2d_4 (Conv2D)               (None, 575, 32, 128) 73728       multiply_3[0][0]                 
__________________________________________________________________________________________________
batch_normalization_4 (BatchNor (None, 575, 32, 128) 512         conv2d_4[0][0]                   
__________________________________________________________________________________________________
lambda_7 (Lambda)               (None, 575, 32, 64)  0           batch_normalization_4[0][0]      
__________________________________________________________________________________________________
lambda_8 (Lambda)               (None, 575, 32, 64)  0           batch_normalization_4[0][0]      
__________________________________________________________________________________________________
activation_7 (Activation)       (None, 575, 32, 64)  0           lambda_7[0][0]                   
__________________________________________________________________________________________________
activation_8 (Activation)       (None, 575, 32, 64)  0           lambda_8[0][0]                   
__________________________________________________________________________________________________
multiply_4 (Multiply)           (None, 575, 32, 64)  0           activation_7[0][0]               
                                                                 activation_8[0][0]               
__________________________________________________________________________________________________
max_pooling2d_2 (MaxPooling2D)  (None, 575, 16, 64)  0           multiply_4[0][0]                 
__________________________________________________________________________________________________
conv2d_5 (Conv2D)               (None, 575, 16, 128) 73728       max_pooling2d_2[0][0]            
__________________________________________________________________________________________________
batch_normalization_5 (BatchNor (None, 575, 16, 128) 512         conv2d_5[0][0]                   
__________________________________________________________________________________________________
lambda_9 (Lambda)               (None, 575, 16, 64)  0           batch_normalization_5[0][0]      
__________________________________________________________________________________________________
lambda_10 (Lambda)              (None, 575, 16, 64)  0           batch_normalization_5[0][0]      
__________________________________________________________________________________________________
activation_9 (Activation)       (None, 575, 16, 64)  0           lambda_9[0][0]                   
__________________________________________________________________________________________________
activation_10 (Activation)      (None, 575, 16, 64)  0           lambda_10[0][0]                  
__________________________________________________________________________________________________
multiply_5 (Multiply)           (None, 575, 16, 64)  0           activation_9[0][0]               
                                                                 activation_10[0][0]              
__________________________________________________________________________________________________
conv2d_6 (Conv2D)               (None, 575, 16, 128) 73728       multiply_5[0][0]                 
__________________________________________________________________________________________________
batch_normalization_6 (BatchNor (None, 575, 16, 128) 512         conv2d_6[0][0]                   
__________________________________________________________________________________________________
lambda_11 (Lambda)              (None, 575, 16, 64)  0           batch_normalization_6[0][0]      
__________________________________________________________________________________________________
lambda_12 (Lambda)              (None, 575, 16, 64)  0           batch_normalization_6[0][0]      
__________________________________________________________________________________________________
activation_11 (Activation)      (None, 575, 16, 64)  0           lambda_11[0][0]                  
__________________________________________________________________________________________________
activation_12 (Activation)      (None, 575, 16, 64)  0           lambda_12[0][0]                  
__________________________________________________________________________________________________
multiply_6 (Multiply)           (None, 575, 16, 64)  0           activation_11[0][0]              
                                                                 activation_12[0][0]              
__________________________________________________________________________________________________
max_pooling2d_3 (MaxPooling2D)  (None, 575, 8, 64)   0           multiply_6[0][0]                 
__________________________________________________________________________________________________
conv2d_7 (Conv2D)               (None, 575, 8, 128)  73728       max_pooling2d_3[0][0]            
__________________________________________________________________________________________________
batch_normalization_7 (BatchNor (None, 575, 8, 128)  512         conv2d_7[0][0]                   
__________________________________________________________________________________________________
lambda_13 (Lambda)              (None, 575, 8, 64)   0           batch_normalization_7[0][0]      
__________________________________________________________________________________________________
lambda_14 (Lambda)              (None, 575, 8, 64)   0           batch_normalization_7[0][0]      
__________________________________________________________________________________________________
activation_13 (Activation)      (None, 575, 8, 64)   0           lambda_13[0][0]                  
__________________________________________________________________________________________________
activation_14 (Activation)      (None, 575, 8, 64)   0           lambda_14[0][0]                  
__________________________________________________________________________________________________
multiply_7 (Multiply)           (None, 575, 8, 64)   0           activation_13[0][0]              
                                                                 activation_14[0][0]              
__________________________________________________________________________________________________
conv2d_8 (Conv2D)               (None, 575, 8, 128)  73728       multiply_7[0][0]                 
__________________________________________________________________________________________________
batch_normalization_8 (BatchNor (None, 575, 8, 128)  512         conv2d_8[0][0]                   
__________________________________________________________________________________________________
lambda_15 (Lambda)              (None, 575, 8, 64)   0           batch_normalization_8[0][0]      
__________________________________________________________________________________________________
lambda_16 (Lambda)              (None, 575, 8, 64)   0           batch_normalization_8[0][0]      
__________________________________________________________________________________________________
activation_15 (Activation)      (None, 575, 8, 64)   0           lambda_15[0][0]                  
__________________________________________________________________________________________________
activation_16 (Activation)      (None, 575, 8, 64)   0           lambda_16[0][0]                  
__________________________________________________________________________________________________
multiply_8 (Multiply)           (None, 575, 8, 64)   0           activation_15[0][0]              
                                                                 activation_16[0][0]              
__________________________________________________________________________________________________
max_pooling2d_4 (MaxPooling2D)  (None, 575, 4, 64)   0           multiply_8[0][0]                 
__________________________________________________________________________________________________
conv2d_9 (Conv2D)               (None, 575, 4, 256)  147712      max_pooling2d_4[0][0]            
__________________________________________________________________________________________________
max_pooling2d_5 (MaxPooling2D)  (None, 575, 1, 256)  0           conv2d_9[0][0]                   
__________________________________________________________________________________________________
reshape_2 (Reshape)             (None, 575, 256)     0           max_pooling2d_5[0][0]            
__________________________________________________________________________________________________
bidirectional_1 (Bidirectional) (None, 575, 256)     295680      reshape_2[0][0]                  
__________________________________________________________________________________________________
bidirectional_2 (Bidirectional) (None, 575, 256)     295680      reshape_2[0][0]                  
__________________________________________________________________________________________________
multiply_9 (Multiply)           (None, 575, 256)     0           bidirectional_1[0][0]            
                                                                 bidirectional_2[0][0]            
__________________________________________________________________________________________________
localization_layer (TimeDistrib (None, 575, 527)     135439      multiply_9[0][0]                 
__________________________________________________________________________________________________
time_distributed_1 (TimeDistrib (None, 575, 527)     135439      multiply_9[0][0]                 
__________________________________________________________________________________________________
lambda_17 (Lambda)              (None, 527)          0           localization_layer[0][0]         
                                                                 time_distributed_1[0][0]         
==================================================================================================
Total params: 1,531,294
Trainable params: 1,529,246
Non-trainable params: 2,048
__________________________________________________________________________________________________
…
